app/android/app/src/main/assets/sherpa-onnx-streaming-zipformer-en-20M-2023-02-17/decoder-epoch-99-avg-1.int8.onnx (onnx, 539499 bytes, 4 tensors)

decoder.conv.weight f4 [512, 4, 2]
0	0xbd13bd2a	-0.036069073
1	0x3a99d4ee	0.0011736432
2	0x3bc48adb	0.005997998
3	0x3d41d380	0.047320843
4	0x3c2189fb	0.009859557
5	0xbcd730fd	-0.026268477
6	0x3c67a5a4	0.014138613
7	0x3cb692e1	0.022286834
8	0x3cbe0699	0.023196505
9	0xbc97c6c5	-0.018527398
10	0x3b7e53b9	0.0038807227
11	0x3d26d0e4	0.040726557
12	0xbcb24990	-0.021763593
13	0xbd39ecb5	-0.045391757
14	0xbbd0dcaf	-0.006373964
15	0x3c045a2c	0.008078139
16	0xbcf0d6f9	-0.029399382
17	0xbc68bbb5	-0.014204909
18	0xbcb23954	-0.021755852
19	0x3d8d66ac	0.06904349
20	0xbcc4da9a	-0.024030019
21	0x3c20446a	0.009781936
22	0xbc252538	-0.010079674
23	0xba50dee5	-0.0007967784
24	0xbc9a5f26	-0.018844198
25	0xbcb7d045	-0.022438178
26	0x3d35a542	0.044347055
27	0x3d8e80a3	0.06958129
28	0xbc97c579	-0.01852678
29	0x3ccef81d	0.025264794
30	0xbd25b311	-0.040453974
31	0xbc4fbb18	-0.012678884
32	0xbc27060b	-0.010194312
33	0xbcf4ed4f	-0.029898314
34	0xbb4150a5	-0.002949753
35	0xbd1f94b3	-0.03896017
36	0xbc90f8f5	-0.017696837
37	0xbbb6358c	-0.0055605825
38	0xb9f78627	-0.00047211463
39	0xbc1e2f22	-0.009654792
40	0xbc48eeb6	-0.012263944
41	0xbcfcea46	-0.030873429
42	0xbd2ce966	-0.042214774
43	0x3c59c803	0.013292315
44	0xbc0d9b88	-0.008643039
45	0xbc60703d	-0.013698635
46	0xbd7a7e2d	-0.061155487
47	0xbd3d00b2	-0.04614324
48	0xbbb1db5b	-0.0054277605
49	0x3cbae3b2	0.022813652
50	0xbc937db9	-0.018004285
51	0x3b1d5f4a	0.0024013096
52	0xbd616149	-0.05502442
53	0xbcceb8e1	-0.025234642
54	0xbb1852f9	-0.0023242815
55	0xbd487975	-0.048943955
56	0xbc032817	-0.008005164
57	0x3d21e86c	0.039528295
58	0xbd7b9928	-0.061425358
59	0xbd44aac3	-0.048014414
60	0xbcf0e1fd	-0.029404635
61	0xb98c6fea	-0.00026786263
62	0xbd7564e5	-0.059910674
63	0x3c29f1bb	0.010372574
64	0x3c12d0d7	0.008960924
65	0x3b66bd9b	0.0035208229
66	0x3c2cb39a	0.010540867
67	0x3d6280f9	0.05529878
68	0xbd2d4736	-0.04230424
69	0xbc7f6f42	-0.015590491
70	0xbd022d95	-0.03178175
71	0xbccdbf89	-0.025115745
72	0x3d275652	0.040853806
73	0x3c0e7f87	0.008697397
74	0x3b68781d	0.0035471984
75	0x3a9de95e	0.0012047698
76	0xbd00eefc	-0.031477913
77	0xbbd73d23	-0.0065685674
78	0xbc1ec16e	-0.009689672
79	0xbda1ab9d	-0.07894061
80	0x3ca020cd	0.01954689
81	0x3d6a5436	0.057209216
82	0xbcdd40d6	-0.027008455
83	0x3c8ab2cf	0.016930966
84	0xbd34519c	-0.04402314
85	0x3ca61068	0.020271495
86	0xbc7a4123	-0.015274319
87	0xbd564fdc	-0.052322254
88	0x3d22d9ff	0.03975868
89	0xbb715129	-0.0036822057
90	0x3ca195c5	0.019724736
91	0x3d0b4c89	0.034008536
92	0x3b8453b6	0.0040382994
93	0xbd2944e3	-0.04132546
94	0x3ba1e08e	0.004940099
95	0x3b29101d	0.0025796958
96	0xbcefd2d6	-0.02927534
97	0xbb9c342b	-0.004766961
98	0xbd316ebc	-0.043318495
99	0xbd5413d3	-0.05177672
100	0xbcc3a849	-0.023883956
101	0xbd3f020c	-0.04663281
102	0xbcc874bd	-0.024469728
103	0x3d03b804	0.032157913
104	0xbc81b03d	-0.015831107
105	0xbce24ea6	-0.027625393
106	0xbd812b45	-0.06307081
107	0x3ccba5df	0.024859367
108	0xbd7c1a17	-0.06154832
109	0xbd666830	-0.056251705
110	0xbc9f7b3c	-0.019467942
111	0xbc11a0c8	-0.008888431
112	0xbd9eb22c	-0.07748827
113	0xbcc22ce4	-0.023703046
114	0xbc3399fb	-0.010962005
115	0xb9ee116d	-0.0004540788
116	0xbb8f4e4e	-0.0043733483
117	0xbdbf0b53	-0.09328332
118	0x3c579ac6	0.013159459
119	0x3cc98951	0.02460161
120	0x3c60f983	0.013731363
121	0xbc9e3927	-0.019314362
122	0x3b975ef8	0.0046194755
123	0xbd30c907	-0.043160465
124	0xbcd15a7e	-0.025555845
125	0xbaabd606	-0.0013110049
126	0xbc43a587	-0.01194132
127	0x3c8b277c	0.016986601
128	0x3cfbb5af	0.030726282
129	0x3d1cd7fd	0.03829192
130	0x3d02100c	0.031753585
131	0xbc4ba32b	-0.012429039
132	0x3be01831	0.0068388213
133	0x3cc04be8	0.023473695
134	0x3b5a659e	0.0033324729
135	0xbd2ed645	-0.042684812
136	0xbc0a908f	-0.008457317
137	0x3c83f80a	0.016109485
138	0x3ba69fc6	0.0050849644
139	0x3c06c869	0.008226492
140	0xbb1610f0	-0.002289828
141	0x3d9a9666	0.075482175
142	0xbc538a2e	-0.012911363
143	0xbc194bcb	-0.009356449
144	0x3cb84b2a	0.022496779
145	0xbc617924	-0.013761792
146	0xbc57533c	-0.013142403
147	0x3cc66b41	0.024221065
148	0x39345d74	0.00017200952
149	0x3d222531	0.03958625
150	0x3cacfb53	0.021115934
151	0x3d201fed	0.039092947
152	0x3bbd9807	0.0057859453
153	0xbd02e4fa	-0.03195665
154	0xbd2fb16b	-0.04289381
155	0x3c3f53ad	0.011677665
156	0x3c8347a4	0.016025372
157	0x3cd4965b	0.025950601
158	0x3c8516d5	0.016246239
159	0xbd3a2fea	-0.04545585
160	0x3b68eb96	0.003554081
161	0xb9f46895	-0.00046617226
162	0xbd345ceb	-0.044033926
163	0xbd1386ac	-0.036017105
164	0xbca42f0b	-0.020041963
165	0xbbc96da6	-0.0061471043
166	0xbc7729a3	-0.015085611
167	0x3da630d6	0.081147835
168	0x3d0a3731	0.03374404
169	0x3a9dd6e0	0.0012042187
170	0xbc1757bc	-0.009237226
171	0xbcaeb3f2	-0.021326039
172	0xbbcfb994	-0.0063392613
173	0xbd688b2a	-0.056773342
174	0x3d0c2879	0.034218285
175	0x3d8118b9	0.063035436
176	0xbcf9e915	-0.03050665
177	0x3c447bca	0.011992404
178	0xbcf10cc6	-0.029425036
179	0xbd4aaff6	-0.049484216
180	0xbc7e136d	-0.015507561
181	0x3c814be4	0.015783258
182	0x3d14f97d	0.036370743
183	0x3cf88c93	0.030340469
184	0xbb83f9ff	-0.0040276046
185	0x3b6e4e71	0.0036362673
186	0x3caec433	0.02133379
187	0x3c44e6f0	0.01201795
188	0x3bc60ed0	0.0060442463
189	0xbd8ae81f	-0.06782555
190	0x3d7696d3	0.06020243
191	0x3cfcbc22	0.030851427
192	0x3d74148c	0.059589908
193	0x3d3d7575	0.046254594
194	0x3c6f6813	0.014612216
195	0xbd5da144	-0.054108873
196	0xbba3455f	-0.004982635
197	0xbd383f9c	-0.044982538
198	0xbd55a5fe	-0.052160256
199	0xbc9c4fa3	-0.019080942
200	0x3c1a7a8f	0.009428634
201	0x3b9dbf4e	0.004814065
202	0x3bc6a37b	0.006061969
203	0x3ba7f6d0	0.005125858
204	0xbd0b8543	-0.034062635
205	0xbd55ed7e	-0.052228443
206	0x3c499189	0.012302765
207	0xbd1c423a	-0.038149096
208	0xbbeab95e	-0.007163211
209	0x3da7c411	0.081916936
210	0xbc8402bf	-0.01611459
211	0x3b6addb5	0.0035837714
212	0x3c6c9186	0.014438992
213	0x3c44e607	0.012017733
214	0xbce235d6	-0.027613562
215	0x3c4f80e3	0.012665006
216	0x3d50b86d	0.050957132
217	0x3d827934	0.06370774
218	0x3b53597b	0.003224938
219	0xbd3ca1f8	-0.046052903
220	0xbd622c71	-0.055218164
221	0xbb1c451e	-0.0023844908
222	0x3af4ab68	0.0018666806
223	0xbca2b3e2	-0.019861165
224	0xbc6cd57e	-0.014455197
225	0x39e50e55	0.00043688962
226	0xbc8b6642	-0.017016534
227	0x3b80cd10	0.0039306954
228	0xbca5f4ba	-0.020258296
229	0x3c81f639	0.015864478
230	0x3bf45c28	0.007457275
231	0xbd6e54fe	-0.058186524
232	0xbb9aa050	-0.004718818
233	0x3cbee0e4	0.023300596
234	0xbc1e36f4	-0.0096566565
235	0xbc80e498	-0.015734002
236	0xbca029c2	-0.019551162
237	0xbd1d97c8	-0.038474828
238	0x3c8e3bbc	0.017362468
239	0xbcdc3f49	-0.026885645
240	0xbccd8df0	-0.025092095
241	0xbcec25ac	-0.028826557
242	0xbd23f068	-0.04002419
243	0x3c833b64	0.01601953
244	0xbb04b3b8	-0.0020248722
245	0xbd38c63d	-0.04511093
246	0xbcb5b685	-0.022181759
247	0xbcea9b14	-0.0286384
248	0xbca9472c	-0.02066382
249	0x3c850c50	0.016241223
250	0xbd39d0d5	-0.045365173
251	0xbd48f978	-0.049066037
252	0xbc4aae6f	-0.01237069
253	0x3c8d6671	0.017260762
254	0xbc44a078	-0.012001149
255	0x3b92aaa6	0.0044759093

decoder_proj.bias f4 [512]
0	0xbd4e9f2b	-0.050444763
1	0xbe4d8675	-0.20070823
2	0x3e7c1e70	0.24620986
3	0x3db87151	0.090059884
4	0x3dcdda40	0.100513935
5	0xbda3c953	-0.07997384
6	0xbcaf51eb	-0.021401366
7	0xbd852000	-0.06500244
8	0xbdbda3d0	-0.092597604
9	0x3f4026c8	0.75059175
10	0xbcc0de96	-0.023543637
11	0x3e14f8bd	0.14548011
12	0x3e18b241	0.14911748
13	0xbd63e281	-0.055635933
14	0x3dcb1ad6	0.09917228
15	0x3ea17c5a	0.31540185
16	0x3f3d4281	0.739296
17	0x3d7e4146	0.06207397
18	0x3d18aa7b	0.037271958
19	0x3f2a2f2b	0.6647822
20	0xbe80e3d3	-0.25173816
21	0xbdaf5306	-0.08560757
22	0x3e0dd652	0.13851288
23	0xbc99c41f	-0.018770276
24	0x3e2195d4	0.15779811
25	0x3e0de70f	0.13857673
26	0x3d8245a6	0.06360941
27	0xbf0d7df7	-0.5527033
28	0xbe5e967b	-0.21737091
29	0xbeb9257c	-0.3616141
30	0x3de92eb9	0.11385865
31	0xbdc52c5b	-0.09627601
32	0xbf7e5e53	-0.9936268
33	0x3d7aace8	0.061200052
34	0x3d872e61	0.06600643
35	0x3d13d831	0.036094848
36	0xbc544ef7	-0.01295828
37	0xbe24eed3	-0.16106729
38	0x3d070646	0.032964967
39	0xbd906bc9	-0.070518084
40	0x3da17caa	0.07885106
41	0x3c1e68b3	0.009668517
42	0x3f34db8b	0.70647496
43	0x3e51a952	0.20474747
44	0xbe989185	-0.29798523
45	0x3eb61085	0.35559478
46	0x3e1eedbc	0.15520376
47	0xbec06101	-0.37574008
48	0x3e222702	0.15835193
49	0xbe4902ae	-0.19629928
50	0xbd583c7a	-0.05279205
51	0x3d97f658	0.07420033
52	0xbdbef104	-0.09323314
53	0x3d92fe60	0.071774244
54	0x3e08f87e	0.13376042
55	0x3d06fa2f	0.032953437
56	0xbe0e5b69	-0.13902058
57	0x3e4f7697	0.20260082
58	0x3cccca01	0.024998667
59	0xbf8bf01d	-1.0932652
60	0xbee195a8	-0.4405949
61	0xbd0b380f	-0.03398901
62	0xbe4a2f46	-0.19744596
63	0xbea82c88	-0.32846475
64	0xbe4280af	-0.18994401
65	0xbf050aeb	-0.51969784
66	0x3e69b67e	0.22823521
67	0x3de80631	0.11329306
68	0xbde3ad44	-0.11117032
69	0x3f431d9e	0.7621707
70	0xbc073da7	-0.008254445
71	0x3f55f64f	0.8357896
72	0x3f8d318d	1.1030747
73	0xbd05fbfb	-0.03271101
74	0x3ec78b8c	0.38973653
75	0x3eca6495	0.39529863
76	0xbe5225a2	-0.20522168
77	0x3923dab3	0.00015626363
78	0x3e1e900d	0.15484639
79	0xbf825760	-1.0182915
80	0xbe6733ae	-0.22578308
81	0xbf338743	-0.7012827
82	0xbf36c46d	-0.7139347
83	0xbc23b694	-0.0099922605
84	0xba9e292b	-0.0012066712
85	0x3e251a7e	0.16123387
86	0x3beee645	0.007290634
87	0x3d170060	0.036865592
88	0xbf0a8cf1	-0.5412131
89	0x3de27b52	0.11058678
90	0xbea338e1	-0.31879333
91	0xbd33d30d	-0.043902446
92	0x3da6cde4	0.08144739
93	0x3c8f0ec0	0.017463088
94	0xbf2912d9	-0.66044384
95	0xbce40694	-0.027835168
96	0xbdadc398	-0.08484572
97	0x3e21cef5	0.15801604
98	0xbe1c3b6c	-0.15257043
99	0x3d9c87dd	0.07643101
100	0x3cd1ed0f	0.025625734
101	0xbb05fb90	-0.0020444132
102	0xbf053617	-0.5203566
103	0x3d444254	0.047914818
104	0x3d55d0c5	0.05220105
105	0xbd4f6de1	-0.050641898
106	0x3e2e61b4	0.17029458
107	0xbe9c8538	-0.30570388
108	0x3cc831d6	0.024437826
109	0xbdf66cba	-0.12032457
110	0xbe03fe8d	-0.12890072
111	0x3ec8a7b0	0.39190435
112	0x3e45aa3c	0.1930322
113	0xbd942a59	-0.0723464
114	0x3ee2e82f	0.44317767
115	0xbe16812b	-0.14697711
116	0xbaf91226	-0.0019002601
117	0xbdf5683d	-0.119827725
118	0xbe46002b	-0.19336002
119	0x3e3c1360	0.18366766
120	0xbd34bbb3	-0.044124316
121	0xbf00bd1f	-0.50288576
122	0xbd0f89c9	-0.03504351
123	0xbda2f26a	-0.07956393
124	0x3dfdfcfa	0.12401767
125	0x3e0973de	0.13423106
126	0x3f4731ff	0.77810663
127	0x3e3575df	0.17720746
128	0xbf22bc86	-0.63568914
129	0xbdfec1a6	-0.12439279
130	0xbd4e587b	-0.05037735
131	0x3df714db	0.12064525
132	0xbec162bd	-0.37770644
133	0x3d811195	0.06302182
134	0x3e773800	0.24142456
135	0x3dd092b2	0.1018423
136	0xbd1118bf	-0.03542399
137	0x3ce28fa3	0.027656382
138	0x3ed0d424	0.4078685
139	0xbd699acc	-0.05703239
140	0xbc3278dc	-0.010893073
141	0xbed6a413	-0.41922054
142	0xbbf9fbcd	-0.007628894
143	0xbde054bd	-0.109536625
144	0x3da8381e	0.082138285
145	0x3dce0696	0.1005985
146	0xbde1394c	-0.10997257
147	0x3d8f6bed	0.07003007
148	0x3ca13a86	0.019681226
149	0x3c5a84b6	0.013337305
150	0xbe3081db	-0.17237036
151	0xbd88ebe5	-0.06685618
152	0xbe4444fc	-0.1916694
153	0xbd1ae4d9	-0.037815902
154	0xbe3c671f	-0.18398713
155	0xbcd052ce	-0.02543011
156	0x3f2bd9fa	0.6712948
157	0x3f4ebff6	0.8076166
158	0x3f029b20	0.5101795
159	0x3db3c9f2	0.087787524
160	0xbd7a1a89	-0.061060462
161	0x3d161e73	0.036650132
162	0x3f291bdd	0.6605814
163	0x3d120f39	0.03565905
164	0xbe4e044f	-0.20118831
165	0x3eab7c7c	0.33493412
166	0x3ef18876	0.47174424
167	0x3caf4a17	0.021397633
168	0x3f696375	0.91167384
169	0xbf3faedb	-0.74876183
170	0xbd361ed5	-0.044462997
171	0xbe3f13b6	-0.18659863
172	0x3de2d6cf	0.11076128
173	0x3e11ab5b	0.14225523
174	0xbd06d2c0	-0.03291583
175	0xbe32ce9e	-0.1746163
176	0xbce0d1c4	-0.027443774
177	0xbe857e03	-0.26072702
178	0xbdf51920	-0.11967683
179	0x3f1049ff	0.5636291
180	0x3c98d045	0.018653998
181	0xbe4275fe	-0.18990323
182	0xbd4af49f	-0.049549695
183	0x3d14e66c	0.03635256
184	0xbd216e6f	-0.03941196
185	0xbd40b664	-0.04704894
186	0x3f42389c	0.7586763
187	0x3f730c48	0.94940615
188	0xbd00d244	-0.031450525
189	0xbf3656d1	-0.7122622
190	0x3deb0260	0.11475062
191	0x3d2e8cec	0.042614862
192	0x3daa6c1e	0.08321403
193	0xbf1a767c	-0.6033704
194	0xbe79245a	-0.24330273
195	0x3c574f48	0.013141461
196	0xbd7300f1	-0.05932707
197	0x3e3c9dd7	0.18419586
198	0x3e74fea0	0.23925257
199	0xbdffc707	-0.12489133
200	0x3f46ab29	0.7760492
201	0x3e9650e4	0.2935859
202	0xbe942ff9	-0.2894285
203	0xbec37826	-0.38177603
204	0xbe870c06	-0.2637636
205	0xbd3caf9a	-0.046065904
206	0x3d1193e1	0.03554142
207	0xbf2ecba3	-0.68279475
208	0x3d41e49c	0.04733716
209	0xbd62448b	-0.05524115
210	0x3e035fe3	0.12829547
211	0xbe1944a6	-0.14967594
212	0x3e939a50	0.2882867
213	0x3d348baa	0.044078507
214	0x3cb6920c	0.022286437
215	0x3da8b1da	0.082370475
216	0x3ee5e768	0.4490311
217	0x3e817adf	0.25289056
218	0xbcaeb89b	-0.021328261
219	0x3dcb401a	0.09924336
220	0xbf04b032	-0.5183135
221	0x3dc64431	0.09680975
222	0xbe6aee42	-0.2294245
223	0x3da96e22	0.08272959
224	0x3d133dba	0.03594754
225	0xbdac7c1f	-0.08422112
226	0xbd5f506f	-0.054520067
227	0xbd92d89b	-0.071702205
228	0xbdd00604	-0.101573974
229	0x3d4004b1	0.046879474
230	0xb95a55a7	-0.00020822008
231	0x3e3d8049	0.18505968
232	0x3cd54deb	0.02603813
233	0xbf058a83	-0.5216448
234	0x3f398c74	0.7247994
235	0x3f3158e9	0.6927629
236	0x3e44b687	0.19210254
237	0xbd48ff68	-0.0490717
238	0xbea6ca71	-0.32576326
239	0x3d93046a	0.07178576
240	0x3da89aef	0.08232676
241	0x3f28306c	0.65698886
242	0x3de84d68	0.11342889
243	0x3bc5220b	0.006016021
244	0xbe25ec90	-0.16203523
245	0xbdbc1d12	-0.09185232
246	0x3e3d6f2b	0.18499438
247	0x3e00972f	0.12557672
248	0x3c80df91	0.015731605
249	0xbbd4c6dd	-0.006493433
250	0x3dc138ac	0.094346374
251	0x3ccd1997	0.025036616
252	0x3d0c5426	0.034259938
253	0x3e93fa80	0.28902054
254	0x3eebcb26	0.46053427
255	0x3ca64ec9	0.02030124

decoder.embedding.weight_quantized u1 [500, 512]
0	0x7f	127
1	0x7f	127
2	0x7f	127
3	0x7f	127
4	0x7f	127
5	0x7f	127
6	0x7f	127
7	0x7f	127
8	0x7f	127
9	0x7f	127
10	0x7f	127
11	0x7f	127
12	0x7f	127
13	0x7f	127
14	0x7f	127
15	0x7f	127
16	0x7f	127
17	0x7f	127
18	0x7f	127
19	0x7f	127
20	0x7f	127
21	0x7f	127
22	0x7f	127
23	0x7f	127
24	0x7f	127
25	0x7f	127
26	0x7f	127
27	0x7f	127
28	0x7f	127
29	0x7f	127
30	0x7f	127
31	0x7f	127
32	0x7f	127
33	0x7f	127
34	0x7f	127
35	0x7f	127
36	0x7f	127
37	0x7f	127
38	0x7f	127
39	0x7f	127
40	0x7f	127
41	0x7f	127
42	0x7f	127
43	0x7f	127
44	0x7f	127
45	0x7f	127
46	0x7f	127
47	0x7f	127
48	0x7f	127
49	0x7f	127
50	0x7f	127
51	0x7f	127
52	0x7f	127
53	0x7f	127
54	0x7f	127
55	0x7f	127
56	0x7f	127
57	0x7f	127
58	0x7f	127
59	0x7f	127
60	0x7f	127
61	0x7f	127
62	0x7f	127
63	0x7f	127
64	0x7f	127
65	0x7f	127
66	0x7f	127
67	0x7f	127
68	0x7f	127
69	0x7f	127
70	0x7f	127
71	0x7f	127
72	0x7f	127
73	0x7f	127
74	0x7f	127
75	0x7f	127
76	0x7f	127
77	0x7f	127
78	0x7f	127
79	0x7f	127
80	0x7f	127
81	0x7f	127
82	0x7f	127
83	0x7f	127
84	0x7f	127
85	0x7f	127
86	0x7f	127
87	0x7f	127
88	0x7f	127
89	0x7f	127
90	0x7f	127
91	0x7f	127
92	0x7f	127
93	0x7f	127
94	0x7f	127
95	0x7f	127
96	0x7f	127
97	0x7f	127
98	0x7f	127
99	0x7f	127
100	0x7f	127
101	0x7f	127
102	0x7f	127
103	0x7f	127
104	0x7f	127
105	0x7f	127
106	0x7f	127
107	0x7f	127
108	0x7f	127
109	0x7f	127
110	0x7f	127
111	0x7f	127
112	0x7f	127
113	0x7f	127
114	0x7f	127
115	0x7f	127
116	0x7f	127
117	0x7f	127
118	0x7f	127
119	0x7f	127
120	0x7f	127
121	0x7f	127
122	0x7f	127
123	0x7f	127
124	0x7f	127
125	0x7f	127
126	0x7f	127
127	0x7f	127
128	0x7f	127
129	0x7f	127
130	0x7f	127
131	0x7f	127
132	0x7f	127
133	0x7f	127
134	0x7f	127
135	0x7f	127
136	0x7f	127
137	0x7f	127
138	0x7f	127
139	0x7f	127
140	0x7f	127
141	0x7f	127
142	0x7f	127
143	0x7f	127
144	0x7f	127
145	0x7f	127
146	0x7f	127
147	0x7f	127
148	0x7f	127
149	0x7f	127
150	0x7f	127
151	0x7f	127
152	0x7f	127
153	0x7f	127
154	0x7f	127
155	0x7f	127
156	0x7f	127
157	0x7f	127
158	0x7f	127
159	0x7f	127
160	0x7f	127
161	0x7f	127
162	0x7f	127
163	0x7f	127
164	0x7f	127
165	0x7f	127
166	0x7f	127
167	0x7f	127
168	0x7f	127
169	0x7f	127
170	0x7f	127
171	0x7f	127
172	0x7f	127
173	0x7f	127
174	0x7f	127
175	0x7f	127
176	0x7f	127
177	0x7f	127
178	0x7f	127
179	0x7f	127
180	0x7f	127
181	0x7f	127
182	0x7f	127
183	0x7f	127
184	0x7f	127
185	0x7f	127
186	0x7f	127
187	0x7f	127
188	0x7f	127
189	0x7f	127
190	0x7f	127
191	0x7f	127
192	0x7f	127
193	0x7f	127
194	0x7f	127
195	0x7f	127
196	0x7f	127
197	0x7f	127
198	0x7f	127
199	0x7f	127
200	0x7f	127
201	0x7f	127
202	0x7f	127
203	0x7f	127
204	0x7f	127
205	0x7f	127
206	0x7f	127
207	0x7f	127
208	0x7f	127
209	0x7f	127
210	0x7f	127
211	0x7f	127
212	0x7f	127
213	0x7f	127
214	0x7f	127
215	0x7f	127
216	0x7f	127
217	0x7f	127
218	0x7f	127
219	0x7f	127
220	0x7f	127
221	0x7f	127
222	0x7f	127
223	0x7f	127
224	0x7f	127
225	0x7f	127
226	0x7f	127
227	0x7f	127
228	0x7f	127
229	0x7f	127
230	0x7f	127
231	0x7f	127
232	0x7f	127
233	0x7f	127
234	0x7f	127
235	0x7f	127
236	0x7f	127
237	0x7f	127
238	0x7f	127
239	0x7f	127
240	0x7f	127
241	0x7f	127
242	0x7f	127
243	0x7f	127
244	0x7f	127
245	0x7f	127
246	0x7f	127
247	0x7f	127
248	0x7f	127
249	0x7f	127
250	0x7f	127
251	0x7f	127
252	0x7f	127
253	0x7f	127
254	0x7f	127
255	0x7f	127

decoder_proj.weight_quantized i1 [512, 512]
0	0x04	4
1	0x04	4
2	0xf6	-10
3	0x02	2
4	0x01	1
5	0xfe	-2
6	0xfe	-2
7	0x01	1
8	0x02	2
9	0xfb	-5
10	0x03	3
11	0x03	3
12	0x04	4
13	0x01	1
14	0x02	2
15	0x06	6
16	0x02	2
17	0x03	3
18	0x02	2
19	0x0a	10
20	0x03	3
21	0x00	0
22	0x05	5
23	0xf4	-12
24	0x00	0
25	0xf8	-8
26	0x00	0
27	0x01	1
28	0x00	0
29	0x01	1
30	0x01	1
31	0x00	0
32	0x02	2
33	0xfd	-3
34	0x05	5
35	0x06	6
36	0xf3	-13
37	0x08	8
38	0x00	0
39	0x05	5
40	0xfd	-3
41	0xfe	-2
42	0x01	1
43	0xfd	-3
44	0x02	2
45	0x0b	11
46	0xfc	-4
47	0x00	0
48	0xfe	-2
49	0x05	5
50	0x06	6
51	0xf7	-9
52	0x04	4
53	0xf6	-10
54	0xf5	-11
55	0xfc	-4
56	0x08	8
57	0x04	4
58	0x05	5
59	0x03	3
60	0x03	3
61	0x07	7
62	0x0c	12
63	0xf4	-12
64	0x06	6
65	0xfb	-5
66	0x02	2
67	0x05	5
68	0x01	1
69	0xf9	-7
70	0x06	6
71	0x04	4
72	0x0a	10
73	0xfa	-6
74	0xfc	-4
75	0x00	0
76	0x00	0
77	0xfe	-2
78	0x03	3
79	0xfd	-3
80	0xf9	-7
81	0x00	0
82	0x0b	11
83	0xfe	-2
84	0xfd	-3
85	0x02	2
86	0x05	5
87	0xfb	-5
88	0x05	5
89	0x08	8
90	0x00	0
91	0x01	1
92	0x05	5
93	0xf9	-7
94	0xfc	-4
95	0xfe	-2
96	0x03	3
97	0xfb	-5
98	0xfa	-6
99	0xfe	-2
100	0x07	7
101	0xff	-1
102	0xfe	-2
103	0x0d	13
104	0x03	3
105	0x00	0
106	0x02	2
107	0xff	-1
108	0x04	4
109	0x00	0
110	0x04	4
111	0x04	4
112	0x00	0
113	0x02	2
114	0x01	1
115	0x03	3
116	0x03	3
117	0x02	2
118	0x0a	10
119	0xfc	-4
120	0xf6	-10
121	0x06	6
122	0x06	6
123	0xfe	-2
124	0xf8	-8
125	0xf6	-10
126	0xfc	-4
127	0xf5	-11
128	0xff	-1
129	0xff	-1
130	0xf2	-14
131	0xf5	-11
132	0x04	4
133	0x01	1
134	0xfd	-3
135	0x05	5
136	0xfa	-6
137	0xff	-1
138	0x05	5
139	0xf9	-7
140	0xfe	-2
141	0xfe	-2
142	0x02	2
143	0x0a	10
144	0xff	-1
145	0x03	3
146	0x0d	13
147	0xfc	-4
148	0xff	-1
149	0x0a	10
150	0x05	5
151	0x08	8
152	0x04	4
153	0xf8	-8
154	0xfd	-3
155	0xf8	-8
156	0xfa	-6
157	0x02	2
158	0x01	1
159	0xfe	-2
160	0xfd	-3
161	0xfd	-3
162	0xfc	-4
163	0xf8	-8
164	0x04	4
165	0x00	0
166	0xfe	-2
167	0xfb	-5
168	0x07	7
169	0x01	1
170	0x06	6
171	0x05	5
172	0x02	2
173	0x01	1
174	0x03	3
175	0xfa	-6
176	0xfb	-5
177	0x02	2
178	0x01	1
179	0x06	6
180	0xfa	-6
181	0x08	8
182	0x07	7
183	0xff	-1
184	0xfc	-4
185	0xfe	-2
186	0xfa	-6
187	0xfd	-3
188	0xfe	-2
189	0xfb	-5
190	0x00	0
191	0x03	3
192	0xfe	-2
193	0x00	0
194	0x02	2
195	0xfe	-2
196	0xfe	-2
197	0x00	0
198	0xf7	-9
199	0xf9	-7
200	0xfc	-4
201	0x07	7
202	0xfb	-5
203	0x06	6
204	0x0a	10
205	0xfe	-2
206	0x00	0
207	0x06	6
208	0xfb	-5
209	0xfd	-3
210	0xff	-1
211	0x09	9
212	0x05	5
213	0xfd	-3
214	0x04	4
215	0x01	1
216	0x01	1
217	0xff	-1
218	0xfe	-2
219	0xff	-1
220	0x07	7
221	0x03	3
222	0x0b	11
223	0x05	5
224	0xfc	-4
225	0x04	4
226	0xfa	-6
227	0x03	3
228	0xff	-1
229	0x07	7
230	0x04	4
231	0xfe	-2
232	0xfd	-3
233	0xf7	-9
234	0xf5	-11
235	0x06	6
236	0xff	-1
237	0x04	4
238	0x06	6
239	0x00	0
240	0x08	8
241	0xfb	-5
242	0x02	2
243	0xfe	-2
244	0x0b	11
245	0xfc	-4
246	0xfc	-4
247	0x02	2
248	0xf9	-7
249	0xfe	-2
250	0xfe	-2
251	0x01	1
252	0xfb	-5
253	0xfc	-4
254	0xf7	-9
255	0x0b	11
