app/android/app/src/main/assets/sherpa-onnx-streaming-zipformer-en-20M-2023-02-17/joiner-epoch-99-avg-1.int8.onnx (onnx, 259572 bytes, 2 tensors)

output_linear.bias f4 [500]
0.016820058 -0.2972547 -0.29725143 0.01340628 0.046525713 0.10571693 0.100922585 -0.06645006
-0.031157685 -0.054699015 0.1051694 0.036918886 0.059515323 0.045898438 -0.1256464 0.039791964
0.053495254 0.027950412 0.09277833 -0.001157037 0.15586598 0.08088631 0.11878616 0.070285335
0.11508166 0.051026005 0.030269727 0.08086893 0.12636366 0.02558709 -0.035720486 -0.005378716
0.036932696 -0.044762824 0.33588895 0.11369394 -0.044019356 0.02768077 -0.012562933 0.10126998
-0.06080603 0.0435338 0.022614717 -0.025418535 -0.00050297426 0.13047229 -0.06776045 -0.027152063
-0.06300536 0.081354074 0.032581292 0.10280231 0.04800553 -0.044779778 0.15192927 -0.05556363
0.12954457 -0.006598172 -0.10200336 0.10924912 -0.042493574 -0.12956524 -0.060350098 0.031098148
0.03824951 0.07455513 -0.10028907 -0.07995264 -0.18761009 -0.037505288 -0.0101479255 -0.05052417
-0.16757174 -0.07115432 -0.03277337 -0.03013598 -0.12059699 -0.07236701 0.06407297 -0.051907763
0.13625978 -0.038351115 -0.01915166 -0.10199132 -0.08178104 -0.034114387 0.041936632 -0.058472183
-0.074345194 -0.04902387 -0.1171778 -0.11009382 -0.11666996 -0.15223226 0.031317152 -0.09983443
-0.14493968 -0.083463155 0.021933123 -0.029782169 -0.0064915516 -0.07885882 -0.097798064 -0.074089535
-0.08693152 -0.022203643 0.01864124 -0.08754387 -0.054664165 0.012515284 -0.07033449 -0.026618693
-0.07331727 -0.15450697 -0.046057176 -0.064373516 -0.088002264 0.04150228 0.0024143173 0.10713123
-0.031680897 0.06609112 0.11338438 -0.1461996 -0.07243989 -0.017452113 -0.0062890905 0.028166732
-0.054583244 0.06869073 -0.08801972 -0.08921885 0.03232797 -0.020513197 0.023446282 -0.09827626
-0.17224304 -0.02768116 -0.12067212 0.043554064 -0.08969174 -0.025292335 -0.07278508 -0.058923613
-0.11838358 -0.12898429 -0.21032529 0.0032494515 -0.09868371 -0.056663144 -0.09635061 -0.1360968
0.050939456 -0.0133124385 0.023018993 -0.15552747 -0.06568051 -0.037513897 0.008904311 -0.124468416
-0.18263806 -0.009941043 -0.09994224 -0.104996145 -0.09000259 -0.12993798 0.057900652 0.115017086
-0.04240021 -0.10492181 -0.11922655 0.0025883946 -0.13752213 -0.15744807 -0.018889587 -0.13691673
-0.13152409 -0.031952113 -0.07622239 -0.11278274 -0.06401454 -0.12843539 -0.034176666 -0.13774225
-0.11510858 0.02354334 -0.14290453 0.000106129504 -0.002203235 -0.032498416 -0.08238973 -0.09360733
-0.17018306 -0.018194064 -0.118638195 -0.10541391 -0.1059525 -0.00954377 -0.10722739 -0.0780945
-0.12809685 -0.0718676 -0.08650926 -0.08364329 -0.17604823 -0.11680193 -0.016884558 -0.09773148
-0.070209116 -0.15218423 -0.18464325 -0.11182772 0.018994257 -0.0773464 -0.08306404 -0.13414805
-0.096721135 -0.08283319 -0.13292895 -0.04655857 -0.06349994 -0.11041457 -0.04837367 0.037621975
0.015833195 -0.07949462 -0.065065995 -0.067915305 -0.14986357 -0.09033762 -0.03317031 -0.020727651
-0.100775406 -0.06250281 -0.028040882 -0.049670298 -0.02514366 0.0056706234 -0.09033288 -0.038432315
-0.14733146 -0.15331092 -0.028780716 -0.0010437609 -0.071107075 -0.18190794 -0.11375017 -0.101079024
-0.06941079 -0.062131103 -0.07976734 -0.094872385 -0.17013976 -0.10597497 -0.08965362 -0.06985061
00000000: 38ca 893c c531 98be 5731 98be 04a6 5b3c
00000010: bf91 3e3d 1e82 d83d 80b0 ce3d f816 88bd
00000020: 673e ffbc 130c 60bd 0e63 d73d 4238 173d
00000030: 57c6 733d 0000 3c3d 73a9 00be e6fc 223d
00000040: d71d 5b3d 43f8 e43c 9102 be3d b8a7 97ba
00000050: 559b 1f3e b9a7 a53d 2946 f33d c2f1 8f3d
00000060: efaf eb3d a500 513d 38f8 f73c 9c9e a53d
00000070: 7a65 013e 049c d13c a54f 12bd f13f b0bb
00000080: bd46 173d 3959 37bd a3f9 ab3e 5ed8 e83d
00000090: a44d 34bd c8c2 e23c c3d4 4dbc a366 cf3d
000000a0: be0f 79bd 7f50 323d 8042 b93c 883a d0bc
000000b0: 08da 03ba 879a 053e fec5 8abd 016e debc
000000c0: f408 81bd f79c a63d f673 053d 048a d23d
000000d0: 72a1 443d 006b 37bd 5993 1b3e b096 63bd
000000e0: 55a7 043e 7a35 d8bb 23e7 d0bd 01be df3d
000000f0: be0d 2ebd c0ac 04be aa31 77bd 8bc1 fe3c
00000100: 85ab 1c3d 5cb0 983d 5b64 cdbd 36be a3bd
00000110: dc1c 40be 259f 19bd 7c43 26bc 6ff2 4ebd
00000120: ed97 2bbe 5bb9 91bd 5f3d 06bd bbdf f6bc
00000130: 8efb f6bd 2835 94bd b038 833d 3c9d 54bd
00000140: af87 0b3e 0f16 1dbd f1e3 9cbc d3e0 d0bd
00000150: d17c a7bd 87bb 0bbd bfc5 2b3d 8780 6fbd
00000160: 4b42 98bd 41cd 48bd eafa efbd de78 e1bd
00000170: a9f0 eebd c6e2 1bbe 6a46 003d fe75 ccbd
00000180: 116b 14be bbee aabd 18ad b33c bcf9 f3bc
00000190: 15b7 d4bb bc80 a1bd 5a4a c8bd 41bc 97bd
000001a0: 2709 b2bd 6ae4 b5bc 84b5 983c 334a b3bd
000001b0: 88e7 5fbd e80c 4d3c 870b 90bd 720f dabc
000001c0: 5d27 96bd 1337 1ebe 73a6 3cbd 43d6 83bd
000001d0: 883a b4bd 4bfe 293d 8639 1e3b 9e67 db3d
000001e0: d4c3 01bd c85a 873d 1236 e83d 59b5 15be
000001f0: 5d5b 94bd bcf7 8ebc b714 cebb ebbd e63c
00000200: ae92 5fbd baad 8c3d af43 b4bd 5fb8 b6bd
00000210: 556a 043d 4b0b a8bc 6b12 c03c 1045 c9bd
00000220: 7b60 30be 9ac3 e2bc f222 f7bd bf65 323d
00000230: 4eb0 b7bd df31 cfbc 5810 95bd e359 71bd
00000240: 1773 f2bd 7514 04be 835f 57be c0f4 543b
00000250: af1a cabd 9d17 68bd 7853 c5bd f65c 0bbe
00000260: e4a5 503d 6a1c 5abc 5492 bc3c 9842 1fbe
00000270: 8183 86bd 2ca8 19bd 63e3 113c 4ce9 febd
00000280: 7905 3bbe c2df 22bc 84ae ccbd 3808 d7bd
00000290: 4753 b8bd 760e 05be 3c29 6d3d 148e eb3d
000002a0: d8ab 2dbd 3fe1 d6bd 0d2d f4bd 0ea2 293b
000002b0: 9ad2 0cbe 113a 21be 56be 9abc e633 0cbe
000002c0: 40ae 06be 38e0 02bd 7c1a 9cbd a3fa e6bd
000002d0: 0e1a 83bd 9184 03be d5fc 0bbd 4e0c 0dbe
000002e0: 0cbe ebbd f6dd c03c 9155 12be d891 de38
000002f0: 2664 10bb 0f1d 05bd f2bb a8bd 33b5 bfbd
00000300: 7844 2ebe b80b 95bc 95f8 f2bd 3fe3 d7bd
00000310: a0fd d8bd 795d 1cbc 099a dbbd 02f0 9fbd
00000320: d22b 03be 522f 93bd c42b b1bd 2c4d abbd
00000330: fd45 34be da35 efbd 7c51 8abc 7127 c8bd
00000340: ccc9 8fbd 2fd6 1bbe 1f13 3dbe ef05 e5bd
00000350: d899 9b3c ca67 9ebd 7b1d aabd 1b5e 09be
00000360: bb15 c6bd 73a4 a9bd 871e 08be 33b4 3ebd
00000370: 420c 82bd 0921 e2bd 7823 46bd 8019 1a3d
00000380: 9eb4 813c 13ce a2bd 5241 85bd 2e17 8bbd
00000390: d675 19be ee02 b9bd 97dd 07bd 09cd a9bc
000003a0: 5663 cebd 7901 80bd feb5 e5bc 1573 4bbd
000003b0: 14fa cdbc a3d0 b93b 7200 b9bd 346b 1dbd
000003c0: 0fde 16be 8afd 1cbe 89c5 ebbc cece 88ba
000003d0: 96a0 91bd 1346 3abe d9f5 e8bd 8502 cfbd
000003e0: 3f27 8ebd 2f7d 7ebd 0f5d a3bd 744c c2bd
000003f0: 1e39 2ebe 6809 d9bd 519c b7bd d60d 8fbd

output_linear.weight_quantized i1 [512, 500]
0 -2 -2 22 -5 0 -14 -3
3 -17 12 -8 0 17 1 12
-4 -4 13 5 7 -12 0 -5
-3 23 11 -1 -36 -6 -11 12
3 -2 -2 -9 -18 -8 -59 3
-13 -1 -9 33 3 -7 -6 -5
-2 -10 -7 -11 -26 -8 -17 4
2 -4 -9 -5 -23 3 3 2
-12 21 15 3 -26 31 15 2
-8 -6 17 -11 8 -29 -9 10
-10 35 -24 32 3 -13 -21 13
9 6 6 6 -18 21 6 -23
-10 9 12 -2 -10 -9 -9 -3
-2 -8 -14 8 18 1 -17 5
20 -1 -31 16 -1 -9 4 15
-12 -6 -2 -17 -9 -8 20 -5
-4 -2 -16 -2 -9 3 -9 5
17 9 -51 -10 -2 17 9 3
-3 11 13 -6 -8 -6 10 24
22 6 4 -9 3 -21 -17 -39
43 -5 -25 -3 -4 -17 -12 -5
-6 -13 -15 12 -19 -10 2 -15
-10 -3 -1 24 -12 -5 -7 -3
-6 4 -7 -4 -5 4 -21 -13
5 -13 26 -41 -2 -1 2 -16
-5 -30 -6 -8 -13 -5 1 16
2 18 -48 -3 -24 4 2 -9
-50 -9 9 -7 12 17 -16 -7
4 -2 10 -14 -40 -15 5 15
-10 -24 -7 9 17 0 -13 -1
-16 5 -10 -7 -17 0 -21 -28
-5 -14 14 -32 -35 -8 -6 14
00000000: 00fe fe16 fb00 f2fd 03ef 0cf8 0011 010c
00000010: fcfc 0d05 07f4 00fb fd17 0bff dcfa f50c
00000020: 03fe fef7 eef8 c503 f3ff f721 03f9 fafb
00000030: fef6 f9f5 e6f8 ef04 02fc f7fb e903 0302
00000040: f415 0f03 e61f 0f02 f8fa 11f5 08e3 f70a
00000050: f623 e820 03f3 eb0d 0906 0606 ee15 06e9
00000060: f609 0cfe f6f7 f7fd fef8 f208 1201 ef05
00000070: 14ff e110 fff7 040f f4fa feef f7f8 14fb
00000080: fcfe f0fe f703 f705 1109 cdf6 fe11 0903
00000090: fd0b 0dfa f8fa 0a18 1606 04f7 03eb efd9
000000a0: 2bfb e7fd fcef f4fb faf3 f10c edf6 02f1
000000b0: f6fd ff18 f4fb f9fd fa04 f9fc fb04 ebf3
000000c0: 05f3 1ad7 feff 02f0 fbe2 faf8 f3fb 0110
000000d0: 0212 d0fd e804 02f7 cef7 09f9 0c11 f0f9
000000e0: 04fe 0af2 d8f1 050f f6e8 f909 1100 f3ff
000000f0: f005 f6f9 ef00 ebe4 fbf2 0ee0 ddf8 fa0e
